…
{"obj": {"type": "AssignInt", "path": ["config", "dataset", "size"], "value": 7}, "version": 20}
{"obj": {"type": "AssignString", "path": ["config", "model"], "value": "NeuralNetwork"}, "version": 21}
{"obj": {"type": "AssignString", "path": ["config", "modelSummary"], "value": "==========================================================================================\nLayer (type:depth-idx)                   Output Shape              Param #\n==========================================================================================\nNeuralNetwork                            --                        --\n\u251c\u2500Sequential: 1-1                        [64, 1]                   --\n\u2502    \u2514\u2500BatchNorm1d: 2-1                  [64, 250]                 500\n\u2502    \u2514\u2500Linear: 2-2                       [64, 512]                 128,512\n\u2502    \u2514\u2500ReLU: 2-3                         [64, 512]                 --\n\u2502    \u2514\u2500Linear: 2-4                       [64, 512]                 262,656\n\u2502    \u2514\u2500ReLU: 2-5                         [64, 512]                 --\n\u2502    \u2514\u2500Linear: 2-6                       [64, 512]                 262,656\n\u2502    \u2514\u2500ReLU: 2-7                         [64, 512]                 --\n\u2502    \u2514\u2500Linear: 2-8                       [64, 1]                   513\n\u2502    \u2514\u2500Sigmoid: 2-9                      [64, 1]                   --\n==========================================================================================\nTotal params: 654,837\nTrainable params: 654,837\nNon-trainable params: 0\nTotal mult-adds (M): 41.91\n==========================================================================================\nInput size (MB): 0.06\nForward/backward pass size (MB): 0.91\nParams size (MB): 2.62\nEstimated Total Size (MB): 3.60\n=========================================================================================="}, "version": 22}
…
