…
{"obj": {"type": "LogFloats", "path": ["monitoring", "gpu_memory"], "values": [{"value": 5.6944580078125, "step": null, "ts": 1651058123.384659}]}, "version": 23}
{"obj": {"type": "AssignString", "path": ["config", "modelSummary"], "value": "==========================================================================================\nLayer (type:depth-idx)                   Output Shape              Param #\n==========================================================================================\nNeuralNetwork                            --                        --\n\u251c\u2500Sequential: 1-1                        [64, 1]                   --\n\u2502    \u2514\u2500BatchNorm1d: 2-1                  [64, 750]                 1,500\n\u2502    \u2514\u2500Linear: 2-2                       [64, 512]                 384,512\n\u2502    \u2514\u2500ReLU: 2-3                         [64, 512]                 --\n\u2502    \u2514\u2500Linear: 2-4                       [64, 512]                 262,656\n\u2502    \u2514\u2500ReLU: 2-5                         [64, 512]                 --\n\u2502    \u2514\u2500Linear: 2-6                       [64, 512]                 262,656\n\u2502    \u2514\u2500ReLU: 2-7                         [64, 512]                 --\n\u2502    \u2514\u2500Linear: 2-8                       [64, 1]                   513\n\u2502    \u2514\u2500Sigmoid: 2-9                      [64, 1]                   --\n==========================================================================================\nTotal params: 911,837\nTrainable params: 911,837\nNon-trainable params: 0\nTotal mult-adds (M): 58.36\n==========================================================================================\nInput size (MB): 0.19\nForward/backward pass size (MB): 1.17\nParams size (MB): 3.65\nEstimated Total Size (MB): 5.01\n=========================================================================================="}, "version": 24}
…
